flower-rise/final_model.pt (torch, 251845 bytes, 10 tensors)

conv1.weight f4 [6, 3, 5, 5]
-0.25675938 -0.31013182 -0.2507731 -0.3531545 -0.17285426 -0.33542123 -0.4592616 -0.24704036
-0.31948274 -0.15211466 -0.26251414 -0.2606017 -0.23365594 -0.16721746 -0.34152436 -0.05342403
-0.2263745 -0.054411005 -0.07267975 -0.06662949 -0.09351309 -0.060381815 -0.22452325 -0.052505035
-0.12635057 0.13540271 0.012788504 0.04285036 0.048857268 -0.1382914 -0.021866374 -0.073795736
0.044116132 0.071147166 -0.14790772 -0.1171477 0.020246292 -0.011101255 -0.12747365 -0.19809626
-0.10242947 -0.12943159 -0.07076525 -0.23336993 -0.17540821 -0.36970177 -0.1264545 -0.19012564
-0.1524876 -0.25644276 0.74724966 0.77578187 0.844595 0.5928871 0.54848284 0.460707
0.5519292 0.63083553 0.5167882 0.43820205 0.3685701 0.45695037 0.43797734 0.41920334
0.20292687 0.21288627 0.322482 0.20112857 0.33696806 0.42108065 -0.007858051 0.1879838
0.121668786 0.18984884 0.14290312 -0.1309986 -0.043981243 0.13187003 0.06398775 0.07259083
-0.04765684 0.03285001 -0.09506935 -0.030979592 -0.07583716 0.019095773 0.043471713 0.05155688
-0.15342538 0.05513486 -0.06409975 0.03763804 0.0024944665 -0.18817896 -0.060316205 -0.080528215
-0.12232894 -0.057618663 -0.123799905 0.09944828 -0.22505197 -0.16301167 -0.18510023 -0.033363145
-0.17762089 -0.17523511 -0.098209985 -0.18908766 -0.08045757 -0.15567218 -0.17227705 -0.18798459
-0.11598553 -0.14900804 -0.22907838 -0.15638128 -0.13888532 -0.16346239 -0.2657318 -0.22888476
-0.21313286 -0.08385989 -0.16761814 -0.22732373 -0.13370138 0.1006841 0.2605449 0.30427182
0.23314385 0.15475263 0.12026356 0.19040531 0.16687651 0.1773935 0.048503112 0.18760769
0.3695737 0.2696698 0.112514846 -0.0054834057 0.19776426 0.3203197 0.21082349 0.25397566
0.11124711 0.37698448 0.3176454 0.24512267 0.33055702 0.34772524 0.10917765 0.10631799
0.32641706 0.14803725 0.07077937 -0.2837772 -0.14030167 -0.2498344 -0.2434514 -0.21179074
-0.513065 -0.6211163 -0.6604562 -0.51628894 -0.5417358 -0.1168324 -0.100239135 -0.2950435
-0.20572892 -0.2209315 0.17245781 0.2895682 0.16163886 0.16340135 0.0043178825 0.16595022
0.2937681 0.4322454 0.22580796 0.35126302 -0.18391052 -0.021673335 -0.107979566 -0.022167549
-0.11158873 -0.4730038 -0.39105067 -0.48858407 -0.3911258 -0.28753328 -0.16418886 -0.29228225
-0.2490485 -0.18461901 -0.17350668 0.059031736 0.0948907 0.24032304 -0.061216675 -0.020809649
0.26837516 0.25772938 0.44920522 0.42444152 0.46216115 0.035354655 -0.039808046 0.15574858
0.058050387 0.114265814 -0.19809932 -0.17054376 -0.17849101 -0.20960298 -0.063667685 0.235658
0.037808996 0.0070748175 0.058987044 0.13111478 0.4752208 0.57803404 0.510581 0.52361184
0.32235128 0.5337751 0.54280996 0.48764 0.41076678 0.5529931 0.22844443 0.14100243
0.040045686 0.07859159 0.45324442 0.27650142 -0.023906834 -0.23839635 -0.009492123 0.24001563
0.2632132 -0.11007646 -0.33701724 -0.267224 0.010738241 0.15788086 -0.1727396 -0.46262482
-0.40682012 -0.047755137 -0.41326386 -0.47602415 -0.5462739 -0.58390707 -0.45855653 -0.2462992
00000000: f775 83be 99c9 9ebe 5565 80be abd0 b4be
00000010: b500 31be 55bc abbe 5624 ebbe 26f8 7cbe
00000020: 3e93 a3be f2c3 1bbe 4168 86be 966d 85be
00000030: 8143 6fbe 0e3b 2bbe 48dc aebe 28d3 5abd
00000040: b8ce 67be 13de 5ebd 1fd9 94bd 0b75 88bd
00000050: ca83 bfbd ec52 77bd 6ce9 65be 850f 57bd
00000060: 0b62 01be 02a7 0a3e e086 513c dc83 2f3d
00000070: 8f1e 483d 439c 0dbe 1c21 b3bc 3822 97bd
00000080: 1eb3 343d 9bb5 913d 1f75 17be 22eb efbd
00000090: 8ddb a53c 0ae2 35bc 7488 02be bfd9 4abe
000000a0: 8bc6 d1bd b789 04be 5fed 90bd 87f8 6ebe
000000b0: 369e 33be 8d49 bdbe 4a7d 01be 4cb0 42be
000000c0: b625 1cbe 774c 83be c14b 3f3f a499 463f
000000d0: 6137 583f 73c7 173f 5f69 0c3f cae1 eb3e
000000e0: 3b4b 0d3f 707e 213f 3b4c 043f 055c e03e
000000f0: 38b5 bc3e 66f5 e93e 913e e03e d2a1 d63e
00000100: 10cc 4f3e dcfe 593e 5c1c a53e a6f4 4d3e
00000110: 1487 ac3e e297 d73e 0ebf 00bc d37e 403e
00000120: 7c2d f93d bc67 423e 3255 123e 7f24 06be
00000130: ad25 34bd f008 073e 020c 833d 80aa 943d
00000140: d233 43bd bb8d 063d b8b3 c2bd eac8 fdbc
00000150: 8350 9bbd bd6e 9c3c 650f 323d 4f2d 533d
00000160: 8b1b 1dbe 17d5 613d bb46 83bd 582a 1a3d
00000170: 347a 233b fcb1 40be 200e 77bd faeb a4bd
00000180: 9887 fabd 8c01 6cbd ce8a fdbd 8aab cb3d
00000190: 0674 66be 88ec 26be ea8a 3dbe cba7 08bd
000001a0: 40e2 35be d570 33be 5122 c9bd 32a0 41be
000001b0: f0c6 a4bd 8768 1fbe 6569 30be 087f 40be
000001c0: d289 edbd 9095 18be 8693 6abe 6a22 20be
000001d0: f437 0ebe af62 27be 000e 88be c460 6abe
000001e0: 803f 5abe bcbe abbd 17a4 2bbe 8dc7 68be
000001f0: 04e9 08be 7733 ce3d 2466 853e 84c9 9b3e
00000200: 43bd 6e3e 7977 1e3e be4c f63d 9cf9 423e
00000210: ade1 2a3e a4a6 353e 33ab 463d 3b1c 403e
00000220: c438 bd3e 2912 8a3e 2f6e e63d 24ae b3bb
00000230: b782 4a3e f200 a43e 1de2 573e 1909 823e
00000240: 86d5 e33d 1c04 c13e 6ba2 a23e 7001 7b3e
00000250: c53e a93e 0b09 b23e 8898 df3d 3fbd d93d
00000260: 2320 a73e 1497 173e c6f4 903d 3f4b 91be
00000270: 3eab 0fbe 97d4 7fbe 534b 79be acdf 58be
00000280: 3a58 03bf 7a01 1fbf a813 29bf 832b 04bf
00000290: 33af 0abf d345 efbd 2d4a cdbd f10f 97be
000002a0: 9aaa 52be de3b 62be c898 303e 4842 943e
000002b0: a884 253e af52 273e 067d 8d3b dbee 293e
000002c0: c668 963e 454f dd3e 343a 673e bfd8 b33e
000002d0: 0a53 3cbe 478c b1bc 6424 ddbd b898 b5bc
000002e0: a288 e4bd 8e2d f2be cb37 c8be b127 fabe
000002f0: a441 c8be 9037 93be 2021 28be 05a6 95be
00000300: 9206 7fbe c40c 3dbe bcab 31be 43cb 713d
00000310: 0e56 c23d 3e17 763e 56be 7abd ff78 aabc
00000320: 7868 893e 1bf5 833e 3afe e53e 6650 d93e
00000330: 63a0 ec3e 0bd0 103d c30d 23bd 8e7c 1f3e
00000340: 3ec6 6d3d 3204 ea3d 8cda 4abe 06a3 2ebe
00000350: 59c6 36be 2aa2 56be 3464 82bd 5550 713e
00000360: 9bdd 1a3d dfd3 e73b 669c 713d f442 063e
00000370: 2450 f33e 0afa 133f 70b5 023f 6d0b 063f
00000380: 3a0b a53e 7ca5 083f 98f5 0a3f f3ab f93e
00000390: 0650 d23e f590 0d3f 56ed 693e f162 103e
000003a0: f206 243d a1f4 a03d a70f e83e 9891 8d3e
000003b0: 44d8 c3bc 2c1e 74be d984 1bbc a8c6 753e
000003c0: e1c3 863e c46f e1bd 868d acbe 96d1 88be
000003d0: 72ef 2f3c 85ab 213e a6e2 30be 29dd ecbe
000003e0: ba4a d0be e49a 43bd 5297 d3be 70b9 f3be
000003f0: 9bd8 0bbf ef7a 15bf ecc7 eabe dc35 7cbe

conv1.bias f4 [6]
-0.2355512 -1.7239925 -1.2557904 -0.90226656 -2.3041725 -1.7217646
00000000: 5534 71be c9ab dcbf bdbd a0bf f1fa 66bf
00000010: 9077 13c0 c862 dcbf

conv2.weight f4 [16, 6, 5, 5]
-0.16277069 -0.13554917 -0.024010835 -0.07887728 0.0015332736 -0.14770997 -0.12910523 -0.14232849
-0.057445668 -0.07242276 -0.15925436 -0.074132755 -0.19649653 -0.17098641 -0.12872908 -0.15877786
-0.069201514 -0.23905209 -0.10760704 -0.07494395 -0.105562955 -0.24635008 -0.14998895 -0.0567877
-0.11761344 -0.07187803 -0.08324675 -0.10955015 -0.14054178 -0.08003286 -0.011698242 -0.10303357
-0.093048654 -0.1422041 -0.15081169 -0.17740542 -0.18326895 -0.20052879 -0.18759474 -0.08512691
-0.14957267 -0.20459293 -0.10457702 -0.07691054 -0.08453771 -0.14126924 -0.10093853 -0.100872815
-0.18791147 -0.059334114 -0.18041672 -0.09864386 -0.20862618 -0.19205278 -0.05451688 -0.18716514
-0.022912284 -0.11218861 -0.102493204 0.023121748 -0.02121859 -0.1429714 -0.111885116 -0.05280094
-0.051875707 -0.09293315 -0.04829246 0.02106775 -0.105482444 -0.05302404 -0.1475089 -0.045435537
-0.25503194 -0.20443681 -0.043156937 -0.043232623 -0.08147276 -0.10156378 -0.12123096 -0.14117116
-0.14677495 -0.24086952 -0.09791195 -0.15744202 -0.06623004 -0.17853819 -0.09629646 -0.059530456
-0.05628511 0.05213808 -0.1124012 -0.14836767 -0.011040486 -0.16660286 -0.06696328 -0.18104368
-0.17417112 -0.07757408 -0.1785688 -0.14644873 -0.057799667 -0.13304928 -0.096818514 -0.17553918
-0.16463852 -0.040400267 -0.078507066 -0.14320251 -0.16970727 -0.071585044 -0.039351616 -0.16704997
-0.100247525 -0.05860033 -0.19349061 -0.02870828 -0.015355664 -0.068403944 -0.029713975 -0.016672697
-0.012190222 -0.08747536 -0.21058458 -0.21480007 -0.14980984 -0.037187576 -0.1608014 -0.13694142
-0.019998422 -0.08599601 -0.114393935 -0.13820225 -0.16101441 -0.084586434 -0.0659498 0.022514507
-0.11782955 -0.09745316 -0.029899625 -0.058458835 -0.11610969 -0.15525705 -0.086255066 -0.08608059
-0.053200986 -0.045536198 -0.18032435 -0.12128688 -0.09783133 -0.13280158 -0.1337523 -0.20006754
-0.13394363 -0.23847833 -0.19231324 -0.30870116 -0.37732157 -0.23828708 -0.10850963 -0.2605231
-0.33719826 -0.4689874 -0.2635249 -0.3193391 -0.039380424 -0.37280965 -0.39624095 -0.5177257
-0.31771702 -0.48950768 -0.16246928 -0.12367443 -0.32938936 -0.59353095 -0.5017853 -0.25013578
-0.4606843 -0.34885702 -0.36617517 -0.24134013 -0.22691765 0.039741877 -0.08868707 -0.20027442
-0.20208037 -0.42545336 -0.4293871 -0.24477455 -0.12072657 -0.22108239 -0.23862338 -0.33489498
-0.24113405 -0.20423311 -0.27020067 -0.30409017 -0.3391791 -0.28280213 -0.075937934 0.18922216
-0.11599779 -0.10499614 -0.08007297 -0.018082444 -0.10256288 -0.060778704 -0.26657555 -0.2439583
-0.36578673 -0.304598 -0.06904552 -0.27128816 -0.25026765 -0.1640467 -0.02281382 -0.41051024
-0.20353201 -0.19664231 -0.3681209 -0.037313834 -0.1216685 -0.0974123 -0.16762327 -0.3021833
-0.059939392 -0.22750685 -0.22458005 -0.5012985 -0.35125166 -0.34648883 -0.19080222 -0.10926077
-0.2762325 -0.45120683 -0.23107721 -0.08262253 -0.26935753 -0.2852587 -0.20841146 -0.14806136
-0.17059757 -0.2481623 -0.01763041 -0.2261127 0.05244487 -0.25079295 -0.3977029 -0.2921729
-0.23889506 0.06800044 -0.016170274 -0.2819858 0.061628453 0.057027146 -0.16327833 -0.07454898
00000000: 5cad 26be 67cd 0abe 5fb2 c4bc 698a a1bd
00000010: 20f8 c83a 4841 17be 2934 04be 8fbe 11be
00000020: 264c 6bbd 6252 94bd 9313 23be ead2 97bd
00000030: 6336 49be 1017 2fbe 8ed1 03be aa96 22be
00000040: 86b9 8dbd 12ca 74be 1461 dcbd 377c 99bd
00000050: 6431 d8bd 3243 7cbe b496 19be 389a 68bd
00000060: 51df f0bd ca34 93bd 467d aabd d45b e0bd
00000070: 2fea 0fbe 45e8 a3bd fca9 3fbc 4403 d3bd
00000080: 4b90 bebd f49d 11be 616e 1abe c4a9 35be
00000090: dbaa 3bbe 6b57 4dbe d618 40be 0457 aebd
000000a0: 9429 19be cf80 51be 7a2c d6bd 4683 9dbd
000000b0: 1b22 adbd e2a8 10be dcb8 cebd 6896 cebd
000000c0: dd6b 40be 5408 73bd 29bf 38be cb05 cabd
000000d0: 1aa2 55be 7ca9 44be 184d 5fbd 38a8 3fbe
000000e0: 8bb2 bbbc 24c3 e5bd f5e7 d1bd d269 bd3c
000000f0: 9cd2 adbc 1867 12be 0624 e5bd cc45 58bd
00000100: 9f7b 54bd bc53 bebd 51ce 45bd 4696 ac3c
00000110: 2e07 d8bd bc2f 59bd 930c 17be 9d1a 3abd
00000120: 8c93 82be e257 51be 54c5 30bd b114 31bd
00000130: 31db a6bd ac00 d0bd f047 f8bd 2c8f 10be
00000140: 2c4c 16be 80a6 76be 0f86 c8bd 7b38 21be
00000150: 9da3 87bd b7d2 36be 1437 c5bd 35d6 73bd
00000160: 378b 66bd bd8e 553d 9a32 e6bd b2ed 17be
00000170: 28e3 34bc f199 2abe 0b24 89bd 8463 39be
00000180: ea59 32be 29df 9ebd bdda 36be a8f6 15be
00000190: 58bf 6cbd 123e 08be c948 c6bd 8bc0 33be
000001a0: 0097 28be c07a 25bd 50c8 a0bd aea3 12be
000001b0: bec7 2dbe 2e9b 92bd 292f 21bd 260f 2bbe
000001c0: 934e cdbd e606 70bd 6722 46be a02d ebbc
000001d0: 5396 7bbc 5e17 8cbd b96a f3bc 2e95 88bc
000001e0: 7fb9 47bc 4826 b3bd 7ca3 57be 8df4 5bbe
000001f0: c067 19be 0052 18bd 1fa9 24be 5f3a 0cbe
00000200: bbd3 a3bc ad1e b0bd 5e47 eabd e484 0dbe
00000210: f6e0 24be a73b adbd b010 87bd 5870 b83c
00000220: 9e50 f1bd 8695 c7bd 0ff0 f4bc 8872 6fbd
00000230: ebca edbd b4fb 1ebe 7fa6 b0bd 054b b0bd
00000240: 47e9 59bd 2a84 3abd f2a6 38be 4165 f8bd
00000250: cb5b c8bd 23fd 07be 5df6 08be 81de 4cbe
00000260: 8528 09be aa33 74be c3ed 44be 140e 9ebe
00000270: 4b30 c1be 8701 74be 4c3a debd 4963 85be
00000280: 40a5 acbe 1e1f f0be bcec 86be 6a80 a3be
00000290: 5e4d 21bd e8e0 bebe 18e0 cabe ac89 04bf
000002a0: ceab a2be c0a0 fabe 595e 26be 0549 fdbd
000002b0: b9a5 a8be a5f1 17bf 0075 00bf cc11 80be
000002c0: d0de ebbe 639d b2be 507b bbbe de21 77be
000002d0: 1a5d 68be 61c8 223d 91a1 b5bd bd14 4dbe
000002e0: 28ee 4ebe 06d5 d9be a0d8 dbbe 2ea6 7abe
000002f0: 7e3f f7bd 6c63 62be b059 74be 5b77 abbe
00000300: d8eb 76be 7c22 51be be57 8abe b5b1 9bbe
00000310: e2a8 adbe 71cb 90be 5985 9bbd 74c3 413e
00000320: 4090 edbd 3708 d7bd 4cfd a3bd a221 94bc
00000330: 7d0c d2bd 17f3 78bd 977c 88be 34d0 79be
00000340: 6648 bbbe 45f4 9bbe bd67 8dbd 48e6 8abe
00000350: 1523 80be dcfb 27be 0ce4 babc 662e d2be
00000360: b26a 50be 9a5c 49be 587a bcbe 64d6 18bd
00000370: 562d f9bd 1a80 c7bd 6fa5 2bbe c5b7 9abe
00000380: 0283 75bd 8ef7 68be 50f8 65be 1955 00bf
00000390: 42d7 b3be fc66 b1be a861 43be 1cc4 dfbd
000003a0: 596e 8dbe 9504 e7be 819f 6cbe 0036 a9bd
000003b0: 3be9 89be 6e0d 92be d069 55be 669d 17be
000003c0: 21b1 2ebe 421e 7ebe a66d 90bc 168a 67be
000003d0: 6fd0 563d ef67 80be b79f cbbe b097 95be
000003e0: e8a0 74be d143 8b3d 8677 84bc 7160 90be
000003f0: 1e6e 7c3d 4c95 693d 6f32 27be 23ad 98bd

conv2.bias f4 [16]
-0.25526065 -0.3134898 -0.24975052 -0.11687463 0.8097974 0.58962435 -0.48948377 0.924379
-0.1506449 -0.18071833 -0.5649283 1.2437513 -0.20958638 -0.22261426 0.4563719 -0.29014906
00000000: 86b1 82be bc81 a0be 9abe 7fbe f75b efbd
00000010: e24e 4f3f 9ff1 163f 9e9d fabe 1aa4 6c3f
00000020: a842 1abe 3a0e 39be 249f 10bf 3e33 9f3f
00000030: d09d 56be fef4 63be 94a9 e93e 6b8e 94be

fc1.weight f4 [120, 400]
-0.016045135 0.049736496 0.08072768 0.1115511 -0.02455835 0.05581934 0.06366152 -0.0026844789
-0.005185245 0.083548665 -0.054957677 0.031717803 -0.016859207 -0.09801689 0.086487055 0.020562856
0.06660087 -0.049102508 0.020524805 0.023210833 0.15357095 -0.006720639 -0.06164599 0.059495848
-0.004965947 -0.08263729 0.008551483 -0.01244205 0.17086938 0.019075949 -0.06433487 -0.12781894
-0.09437941 -0.04722431 -0.01256079 -0.13472748 0.022194998 0.11094659 -0.03485742 0.05679402
0.042309616 0.10404966 0.04805691 -0.0060188514 0.05880867 -0.12738606 -0.08197151 -0.14305577
-0.07971756 -0.07996871 0.0768973 0.05028162 0.03220661 0.00082939304 0.0113403695 0.019089665
0.048115745 -0.019563328 -0.056550816 -0.015346519 0.071547255 -0.059210505 -0.011323811 -0.014507523
-0.11207515 -0.105861716 -0.031347968 -0.043906864 -0.022195911 -0.07185601 -0.16390195 -0.07545433
-0.08456149 -0.17919831 -0.10042011 0.043188702 0.13238032 -0.009030764 -0.007976105 0.012207918
-0.0056288177 0.046287064 0.0016609579 -0.033956435 -0.090662315 0.084618025 -0.012115972 0.003311706
0.006861792 -0.049726352 0.043628607 -0.013448707 -0.061924387 0.11388298 -0.07078912 -0.024130045
0.0037788637 -0.03852298 -0.10262695 0.0017567417 -0.33014268 -0.18589923 -0.07208647 -0.08109591
-0.14819929 -0.10923419 -0.057594687 -0.302017 -0.047633573 -0.3304242 -0.15841246 -0.06418746
-0.111940324 -0.32464507 -0.085504085 -0.17538807 -0.18950684 -0.09704187 -0.3012839 -0.16330427
-0.13464862 -0.15427908 -0.1724259 -0.039643474 -0.12802246 0.0006403052 -0.03932271 -0.06285117
-0.00017204393 -0.04995992 -0.009057759 0.044763483 -0.0599297 -0.03501485 -0.021725953 -0.053794105
-0.0103116585 -0.037333384 0.057230685 -0.049546268 0.017127667 0.0046640635 -0.060790163 -0.072198756
-0.033734873 -0.108941376 0.031819254 0.044461988 -0.057217337 -0.014352375 -0.05397793 -0.03090661
0.0070765796 -0.07314024 0.06532219 -0.007017023 -0.0010890495 0.036590822 -0.028854422 -0.013862819
0.048240166 0.07854615 0.016791575 0.032827854 0.020208556 0.04193248 0.035194315 -0.021332389
0.031021414 0.018240547 0.01503057 -0.033419468 -0.01649281 -0.085436106 -0.056736466 -0.17927307
-0.13112496 -0.16646786 -0.08147028 -0.045424286 -0.14625786 -0.10486665 0.016460044 -0.048457444
-0.066690296 -0.14760734 -0.17122953 -0.12550928 -0.07062579 -0.18397549 -0.07038802 -0.15234914
-0.09256844 -0.02776982 -0.029975299 -0.03640657 -0.07021145 0.0059015043 -0.10736346 -0.179466
-0.0027589235 -0.011328781 0.00081581087 -0.0013992948 0.007193761 0.016936515 0.0062219263 -0.025688335
0.035186306 0.009768393 -0.004443178 -0.037599742 -0.012643296 -0.03286819 0.04508212 0.0215522
0.00885589 -0.0027541658 0.028808288 0.02294684 -0.044341817 -0.051412143 -0.033563677 -0.07556088
-0.002258489 0.1226912 0.0637978 -0.015210671 0.00067595067 0.04646912 0.059324224 -0.008607784
0.015101172 -0.060898997 0.020986741 -0.047988404 0.014880994 -0.006722655 0.06903926 -0.012569439
0.092694044 0.07665985 0.017927792 -0.057603642 -0.03687413 0.017214477 0.04448153 0.061903678
-0.048960306 0.008435266 -0.06656201 -0.0053461306 -0.050367337 -0.14877276 -0.025966298 -0.11617168
00000000: 1671 83bc 7fb8 4b3d 8e54 a53d e774 e43d
00000010: 982e c9bc d2a2 643d f960 823d 15ee 2fbb
00000020: fde8 a9bb 901b ab3d 4d1b 61bd 87ea 013d
00000030: 521c 8abc 14bd c8bd 2020 b13d 6f73 a83c
00000040: 0966 883d b61f 49bd a323 a83c a524 be3c
00000050: b441 1d3e ce38 dcbb 8180 7cbd ebb1 733d
00000060: 62b9 a2bb bd3d a9bd 851b 0c3c bdd9 4bbc
00000070: 62f8 2e3e 2a45 9c3c 00c2 83bd f8e2 02be
00000080: fe49 c1bd 476e 41bd c6cb 4dbc 00f6 09be
00000090: 49d2 b53c f737 e33d a7c6 0ebd d9a0 683d
000000a0: d94c 2d3d fd17 d53d 53d7 443d c939 c5bb
000000b0: 5ce1 703d 7e71 02be aee0 a7bd 367d 12be
000000c0: f642 a3bd a3c6 a3bd 557c 9d3d 1af4 4d3d
000000d0: 14eb 033d a06b 593a f5cc 393c ee61 9c3c
000000e0: 0415 453d 4643 a0bc d4a1 67bd f76f 7bbc
000000f0: 5e87 923d b786 72bd 8187 39bc f6b0 6dbc
00000100: a887 e5bd 07ce d8bd ba66 00bd afd7 33bd
00000110: 33d4 b5bc 3e29 93bd ead5 27be cd87 9abd
00000120: 932e adbd c37f 37be 0fa9 cdbd a3e6 303d
00000130: b58e 073e c5f5 13bc 36ae 02bc b803 483c
00000140: f271 b8bb 8197 3d3d 80b4 d93a e715 0bbd
00000150: 2aad b9bd 374c ad3d 1282 46bc 3509 593b
00000160: e2d8 e03b dcad 4bbd e9b3 323d f757 5cbc
00000170: 6da4 7dbd 7b3b e93d e3f9 90bd 5fac c5bc
00000180: d0a6 773b 46ca 1dbd 142e d2bd 7842 e63a
00000190: 7608 a9be 5e5c 3ebe 12a2 93bd 9d15 a6bd
000001a0: 8ec1 17be 2db6 dfbd 68e8 6bbd f9a1 9abe
000001b0: 6c1b 43bd 5c2d a9be e036 22be b774 83bd
000001c0: f840 e5bd e137 a6be c41c afbd ee98 33be
000001d0: 150e 42be e3bd c6bd e241 9abe 3c39 27be
000001e0: 54e1 09be 56fb 1dbe 6a90 30be 3261 22bd
000001f0: 5218 03be 28da 273a da10 21bd 1db8 80bd
00000200: b166 34b9 c6a2 4cbd ff66 14bc ea59 373d
00000210: d878 75bd bb6b 0fbd a0fa b1bc 3557 5cbd
00000220: 3bf2 28bc e4ea 18bd b96a 6a3d 07f1 4abd
00000230: 524f 8c3c 00d5 983b 1bff 78bd f1dc 93bd
00000240: 942d 0abd a81c dfbd e854 023d c61d 363d
00000250: ba5c 6abd 3926 6bbc f617 5dbd dc2f fdbc
00000260: a7e2 e73b 8dca 95bd a4c7 853d 0eef e5bb
00000270: 70be 8eba 42e0 153d 1c60 ecbc e120 63bc
00000280: 7b97 453d cedc a03d 7c8e 893c 8076 063d
00000290: 6a8c a53c 64c1 2b3d ea27 103d 43c1 aebc
000002a0: 9f20 fe3c 336d 953c c842 763c dae2 08bd
000002b0: ee1b 87bc 20f9 aebd 7f64 68bd 5c93 37be
000002c0: 9f45 06be 8d76 2abe e4d9 a6bd d10e 3abd
000002d0: 9fc4 15be 54c4 d6bd 37d7 863c 507b 46bd
000002e0: ec94 88bd 6126 17be cb56 2fbe 8185 00be
000002f0: 41a4 90bd 1264 3cbe 9827 90bd 6a01 1cbe
00000300: 8694 bdbd 897d e3bc c28e f5bc 0e1f 15bd
00000310: 05cb 8fbd 6861 c13b 60e1 dbbd efc5 37be
00000320: 0ecf 34bb 5a9c 39bc 24dc 553a 8b68 b7ba
00000330: a4b9 eb3b 72be 8a3c 4de1 cb3b 5870 d2bc
00000340: 841f 103d 9c0b 203c 1498 91bb 3002 1abd
00000350: d425 4fbc cca0 06bd 07a8 383d 3d8e b03c
00000360: 4b18 113c 3c7f 34bb 5cff eb3c 03fb bb3c
00000370: c49f 35bd 8a95 52bd 117a 09bd aabf 9abd
00000380: 2803 14bb 8645 fb3d 6ca8 823d 2e36 79bc
00000390: 4832 313a 6756 3e3d f5fd 723d aa07 0dbc
000003a0: e86a 773c 3a71 79bd 63ec ab3c 7d8f 44bd
000003b0: 6acf 733c b849 dcbb 7564 8d3d 0cf0 4dbc
000003c0: 60d6 bd3d d7ff 9c3d 4edd 923c ccf1 6bbd
000003d0: 5409 17bd 6005 8d3c 4432 363d b68e 7d3d
000003e0: 9a8a 48bd 1234 0a3c aa51 88bd 982e afbb
000003f0: fb4d 4ebd e357 18be 46b7 d4bc 6beb edbd

fc1.bias f4 [120]
-0.5598271 -0.5011254 -0.49879742 -0.4357706 -0.7067282 -0.6645916 -0.020894676 -0.5335595
-0.46928543 -0.3785785 -0.63538814 0.7522099 0.88242733 0.6244464 0.5223971 -0.28828144
-0.60646737 0.69281274 -0.6305201 -0.4058186 0.5442305 -0.1672528 -0.54585683 -0.43773633
-0.32314155 -0.21213177 -0.5753729 -0.6329779 -0.28756073 -0.28810927 -0.4965647 -0.36806625
-0.4543294 0.63544756 -0.05531556 -0.2607839 -0.4240477 -0.45459074 -0.43904063 -0.65072626
-0.122969404 0.1313185 -0.37124044 0.93786734 -0.49038538 0.8418439 -0.3234258 0.55444103
0.9704417 -0.016048258 -0.32558185 -0.2105361 -0.39301795 -0.48396736 -0.6312798 -0.8113672
-0.47439107 -0.17353593 -0.01323083 -0.44894603 -0.5806962 -0.73371017 -0.20314428 0.4221599
-0.5408896 -0.5817828 -0.4176015 1.077293 0.13672677 -0.25130105 -0.6250999 -0.5409698
-0.0732458 -0.6424386 -0.20726857 -0.311922 -0.3812097 -0.31576407 -0.13511619 -0.2924232
0.8801031 -0.33191928 -0.7392897 -0.5973683 -0.45695627 -0.43131274 -0.42678884 -0.6058478
-0.30374062 0.111671 -0.61918664 -0.5827855 -0.4607083 -0.27965763 -0.5153498 -0.5654068
-0.52598137 -0.5838344 -0.3807125 -0.55413616 -0.6380846 -0.35455722 -0.6223384 -0.38183555
-0.6667817 0.75443685 -0.5317001 -0.04939641 -0.27670005 -0.5444045 0.0020079082 -0.529989
-0.40741226 -0.31208932 -0.32922316 0.26144126 -0.49538186 -0.26945964 -0.48185843 -0.14584821
00000000: d450 0fbf c149 00bf 6062 ffbe 531d dfbe
00000010: 24ec 34bf ad22 2abf 502b abbc 5b97 08bf
00000020: 2e46 f0be 0bd5 c1be cca8 22bf d490 403f
00000030: c2e6 613f b8db 1f3f d1bb 053f a099 93be
00000040: 7241 1bbf 2d5c 313f c469 21bf 75c7 cfbe
00000050: b152 0b3f 5144 2bbe 46bd 0bbf fa1e e0be
00000060: cf72 a5be 1239 59be a34b 13bf d70a 22bf
00000070: 293b 93be 0f83 93be ba3d febe 2e73 bcbe
00000080: dd9d e8be b1ac 223f 9292 62bd 7885 85be
00000090: c81c d9be 1ec0 e8be efc9 e0be ff95 26bf
000000a0: 62d7 fbbd 5b78 063e 3a13 bebe 1318 703f
000000b0: cb13 fbbe 1583 573f 1198 a5be d9ef 0d3f
000000c0: de6e 783f a377 83bc aab2 a6be c796 57be
000000d0: a639 c9be 92ca f7be 8e9b 21bf c3b5 4fbf
000000e0: 63e3 f2be 67b3 31be 20c6 58bc 41dc e5be
000000f0: 82a8 14bf 6ed4 3bbf 0e05 50be 5825 d83e
00000100: be77 0abf b8ef 14bf ddcf d5be bde4 893f
00000110: 1a02 0c3e 88aa 80be 8c06 20bf ff7c 0abf
00000120: e501 96bd db76 24bf 363e 54be 3eb4 9fbe
00000130: eb2d c3be d4ab a1be e65b 0abe 7eb8 95be
00000140: 704e 613f 53f1 a9be 1742 3dbf 21ed 18bf
00000150: 2cf6 e9be 06d5 dcbe 1184 dabe d718 1bbf
00000160: e483 9bbe c4b3 e43d 0483 1ebf 6e31 15bf
00000170: f5e1 ebbe 492f 8fbe f7ed 03bf 80be 10bf
00000180: b7a6 06bf 2c76 15bf c0ec c2be dedb 0dbf
00000190: 8359 23bf 8688 b5be 9251 1fbf f37f c3be
000001a0: 35b2 2abf c622 413f 7f1d 08bf e453 4abd
000001b0: a1ab 8dbe 185e 0bbf 1c97 033b 5cad 07bf
000001c0: 5798 d0be 2cca 9fbe f08f a8be a1db 853e
000001d0: b1a2 fdbe 9df6 89be 26b6 f6be 3c59 15be

fc2.weight f4 [84, 120]
-0.065843314 -0.10297272 0.06834866 -0.16435875 -0.19334447 -0.2025406 0.0047799833 -0.12869178
-0.022892656 -0.07497383 -0.17037514 -0.23548657 -0.06970144 -0.12013513 -0.23350725 0.00063189864
-0.038707294 -0.08253951 -0.08453246 -0.007878926 -0.0064493692 -0.02927848 -0.105079666 0.003876552
0.032967396 -0.11538856 -0.10234255 -0.06965956 -0.015112061 -0.11971622 -0.05281367 -0.091172524
-0.07498765 -0.27219844 -0.072430976 -0.19391662 0.0037082853 -0.049564462 -0.024024725 -0.11806204
-0.08864511 -0.15837938 -0.007496884 -0.06827173 -0.06927496 -0.17133461 -0.075123414 -0.17705919
-0.22039056 -0.10460661 -0.08194513 0.07169742 -0.13790585 -0.004126924 -0.14339867 -0.19031736
-0.1582931 -0.0032472354 0.06686103 -0.027152553 -0.14102903 -0.011870596 -0.088482454 -0.047749463
-0.11762555 0.06475597 0.029227687 -0.15214904 -0.2274813 0.041388407 -0.044116482 -0.11728452
-0.09242031 -0.16654237 -0.20531611 0.036253877 0.025307816 0.0122414995 0.0081309145 -0.055080168
-0.0010390878 -0.064035445 -0.015935658 -0.02234712 0.047440246 0.029789347 0.08789643 -0.082028
-0.13171521 -0.12789184 -0.13580664 0.063568816 -0.07756436 -0.029066432 0.0017047226 0.034161486
-0.18255332 -0.011982247 -0.008478049 0.006788226 0.07636926 -0.08621177 -0.008999925 -0.087662816
-0.093501516 -0.15938489 -0.11547685 -0.082695216 0.028140007 -0.18263562 -0.017975546 -0.022714494
-0.09133433 0.06851473 -0.0073028025 -0.021973979 -0.11129796 -0.022536878 -0.08688285 -0.066528864
-0.09059022 -0.017937511 0.09972182 0.017298272 0.07228692 -0.1781848 -0.10896233 -0.2051484
-0.33619648 -0.09857402 -0.07244465 0.0563709 -0.27762163 -0.042953197 -0.08696363 -0.018999167
-0.021320013 -0.13373095 -0.07598489 -0.041747183 -0.15216635 -0.12631288 -0.013085727 -0.08595466
-0.21170957 -0.034744523 -0.05014258 0.025834892 -0.0057965517 -0.046428263 -0.17449817 -0.087116614
0.025138639 -0.22888663 -0.17724974 -0.13951002 0.01796848 0.041352917 -0.10824376 -0.15432957
-0.1935837 -0.2173025 0.06427358 -0.064121775 -0.1195136 -0.079776265 0.16916382 -0.16138652
-0.26303044 -0.12529802 -0.15629947 -0.10695822 0.061158128 0.15808064 -0.050476775 -0.3836161
-0.18945022 -0.033485856 -0.2192481 -0.007780228 0.16216397 0.025119774 -0.0026786674 -0.09978247
-0.15964581 -0.115711816 0.09439477 -0.18584192 -0.078363076 0.007784647 -0.098671906 -0.09280671
-0.2312102 -0.12722832 0.050783567 0.0044492483 -0.14127281 0.024559459 -0.08210073 -0.018367197
-0.1507354 -0.06299748 -0.007841833 0.023182293 0.042715617 -0.14403191 0.034301545 -0.26875326
-0.21095026 -0.15242061 -0.053647846 -0.0014231931 0.1208438 0.10751967 -0.017500227 -0.053092368
-0.1088627 0.16259804 -0.17668998 0.034409076 -0.13722275 -0.05532538 -0.03338579 0.045618933
-0.093354575 -0.0930244 -0.08223447 -0.15771616 -0.025980676 -0.09797658 -0.18122381 -0.04684721
-0.15435433 -0.050684027 -0.0059163943 -0.06654444 -0.05871871 0.008119011 -0.08707151 -0.04935977
-0.068633005 -0.13330796 -0.1335372 -0.09300097 -0.08113228 -0.057568483 -0.029961627 -0.18897055
-0.028805703 0.0027885195 -0.09292193 -0.15246657 -0.16314566 -0.17229041 -0.09211316 0.073314786
00000000: dcd8 86bd 5de3 d2bd 62fa 8b3d a94d 28be
00000010: 18fc 45be ce66 4fbe 68a1 9c3b c7c7 03be
00000020: 6189 bbbc e18b 99bd d276 2ebe 6423 71be
00000030: a1bf 8ebd 6809 f6bd 861c 6fbe 00a6 253a
00000040: 8a8b 1ebd 7a0a a9bd 5b1f adbd 9c16 01bc
00000050: 3b55 d3bb 6cd9 efbc 0234 d7bd c00d 7e3b
00000060: d208 073d d650 ecbd f998 d1bd aca9 8ebd
00000070: 9498 77bc c72d f5bd 2653 58bd a9b8 babd
00000080: 2093 99bd 985d 8bbe b156 94bd 1492 46be
00000090: b406 733b 1b04 4bbd 80cf c4bc 83ca f1bd
000000a0: 918b b5bd 342e 22be 6ca8 f5bb 0cd2 8bbd
000000b0: 08e0 8dbd 5772 2fbe 4eda 99bd 014f 35be
000000c0: 10ae 61be fe3b d6bd d9d2 a7bd 19d6 923d
000000d0: 3137 0dbe 263b 87bb 1ad7 12be 8ee2 42be
000000e0: 9617 22be 92cf 54bb 70ee 883d 086f debc
000000f0: ea69 10be e37c 42bc 4a36 b5bd f194 43bd
00000100: aae5 f0bd c79e 843d e76e ef3c f5cc 1bbe
00000110: dcf0 68be e486 293d 7cb3 34bd de32 f0bd
00000120: dc46 bdbd 158a 2abe 633e 52be f27e 143d
00000130: 5652 cf3c 9290 483c 8737 053c be9b 61bd
00000140: 0032 88ba 0425 83bd 7f8b 82bc 4f11 b7bc
00000150: b450 423d ca08 f43c 0b03 b43d 4cfe a7bd
00000160: 5ae0 06be 14f6 02be e510 0bbe 5e30 823d
00000170: 10da 9ebd ba1c eebc 0071 df3a eaec 0b3d
00000180: 42ef 3abe 3051 44bc 84e7 0abc c46f de3b
00000190: 7d67 9c3d cc8f b0bd 6c74 13bc 9088 b3bd
000001a0: b97d bfbd cb35 23be 207f ecbd 1c5c a9bd
000001b0: df85 e63c d504 3bbe 7441 93bc bf13 babc
000001c0: 7e0d bbbd 7351 8c3d 594c efbb c602 b4bc
000001d0: 2ff0 e3bd 429f b8bc a3ef b1bd 4940 88bd
000001e0: 5e87 b9bd b0f1 92bc f43a cc3d 1bb5 8d3c
000001f0: 2a0b 943d 1476 36be a427 dfbd 6c12 52be
00000200: f221 acbe 2de1 c9bd dc5d 94bd 2ce5 663d
00000210: 6c24 8ebe b1ef 2fbd fd19 b2bd 24a4 9bbc
00000220: 4fa7 aebc c4f0 08be f79d 9bbd 18ff 2abd
00000230: 7fd1 1bbe 2a58 01be 8465 56bc ff08 b0bd
00000240: 65ca 58be 4650 0ebd 4e62 4dbd b2a3 d33c
00000250: 00f1 bdbb 902b 3ebd a6af 32be 326a b2bd
00000260: 8cef cd3c 4261 6abe f580 35be b7db 0ebe
00000270: a232 933c ad61 293d e8ae ddbd 9208 1ebe
00000280: ce3a 46be 8c84 5ebe dea1 833d 4752 83bd
00000290: 8cc3 f4bd bd61 a3bd 4839 2d3e 8242 25be
000002a0: edab 86be 204e 00be f80c 20be e90c dbbd
000002b0: f280 7a3d e4df 213e bcc0 4ebd 5469 c4be
000002c0: 3dff 41be 7728 09bd 9382 60be 48f1 febb
000002d0: 500e 263e fcc7 cd3c 958c 2fbb c05a ccbd
000002e0: 317a 23be 51fa ecbd 0c52 c13d 584d 3ebe
000002f0: d27c a0bd 5a16 ff3b 7f14 cabd 7211 bebd
00000300: 5ec2 6cbe 2448 02be 6e02 503d 00cb 913b
00000310: d2a9 10be eb30 c93c 6d24 a8bd ce76 96bc
00000320: 615a 1abe d304 81bd 087b 00bc cbe8 bd3c
00000330: 92f6 2e3d 1a7d 13be c77f 0c3d 079a 89be
00000340: 5803 58be 2614 1cbe d8bd 5bbd 708a baba
00000350: f47c f73d 4633 dc3d a35c 8fbc 6277 59bd
00000360: 68f3 debd 1a80 263e 38ee 34be 88f0 0c3d
00000370: 1f84 0cbe de9c 62bd 8abf 08bd ebda 3a3d
00000380: af30 bfbd 9483 bebd 8c6a a8bd 5880 21be
00000390: 6dd5 d4bc f2a7 c8bd bc92 39be dce2 3fbd
000003a0: 100f 1ebe 0e9a 4fbd 50de c1bb 7448 88bd
000003b0: 0883 70bd 9a05 053c 8c52 b2bd 782d 4abd
000003c0: 768f 8cbd e281 08be fabd 08be 4b77 bebd
000003d0: ae28 a6bd eecc 6bbd 1672 f5bc 7f81 41be
000003e0: f0f9 ebbc 98bf 363b da4d bebd 3220 1cbe
000003f0: a80f 27be e66c 30be d3a5 bcbd 1026 963d

fc2.bias f4 [84]
-0.38497543 -0.43472713 -0.42050746 -0.3283852 -0.42500135 -0.43529168 -0.2946776 -0.5153809
0.2507766 0.78248274 -0.44950977 0.19196469 -0.30251402 0.73953694 -0.45298648 -0.49143857
0.15437213 0.14612532 -0.47847387 0.09019664 -0.41277754 -0.38374394 -0.5142609 -0.48429877
-0.42634487 -0.46895826 -0.77828836 -0.16748486 -0.37254345 -0.4027374 -0.43097454 -0.22670734
-0.48877227 -0.42731243 -0.44314134 -0.4669193 0.020121928 -0.17016165 -0.56856704 -0.3330288
0.57227176 -0.4028814 -0.42828888 -0.02799883 -0.13966838 -0.45035788 -0.24455711 0.72482634
-0.18404862 -0.49770153 -0.35544676 -0.39682877 -0.4956402 -0.5255871 -0.3081305 -0.20381108
-0.3086574 -0.42299962 -0.54594064 -0.31712773 -0.43046564 -0.446968 -0.23968431 -0.46646503
-0.6388495 -0.46075013 -0.33502275 -0.50196546 -0.2973161 -0.5561911 0.068728104 -0.36577022
-0.4566561 -0.49383357 -0.46652943 -0.16022441 -0.50075144 -0.14305384 -0.37404332 0.7347935
-0.40667278 0.22436877 -0.37760124 0.15247001
00000000: 801b c5be 8e94 debe c14c d7be 1b22 a8be
00000010: c799 d9be 8dde debe fbdf 96be 01f0 03bf
00000020: ca65 803e ca50 483f 2526 e6be 6492 443e
00000030: 1ee3 9abe 4b52 3d3f d8ed e7be d69d fbbe
00000040: ba13 1e3e e0a1 153e 87fa f4be 04b9 b83d
00000050: 9457 d3be 167a c4be 9aa6 03bf 02f6 f7be
00000060: e049 dabe 4c1b f0be e83d 47bf 2781 2bbe
00000070: 04be bebe 9933 cebe b2a8 dcbe f825 68be
00000080: 5c40 fabe b2c8 dabe 6ce3 e2be 0c10 efbe
00000090: bed6 a43c db3e 2ebe 9c8d 11bf c082 aabe
000000a0: 6780 123f 7946 cebe ae48 dbbe cd5d e5bc
000000b0: 3a05 0fbe 4f95 e6be 2e6d 7abe 388e 393f
000000c0: 3e77 3cbe bcd2 febe 1efd b5be 242d cbbe
000000d0: 8dc4 fdbe e08c 06bf 48c3 9dbe dab3 50be
000000e0: 5808 9ebe 6893 d8be c4c2 0bbf 915e a2be
000000f0: fe65 dcbe fdd8 e4be ce6f 75be 81d4 eebe
00000100: a48b 23bf 71e7 ebbe 1a88 abbe cf80 00bf
00000110: d139 98be 8a62 0ebf 52c1 8c3d 3c46 bbbe
00000120: d4ce e9be c1d7 fcbe f2dc eebe de11 24be
00000130: 3f31 00bf b57c 12be 9b82 bfbe 6d1b 3c3f
00000140: 6a37 d0be edc0 653e f354 c1be 1921 1c3e

fc3.weight f4 [10, 84]
-0.5092049 -0.4996081 -0.27895832 -0.29098165 -0.15400593 -0.24057138 -0.34824598 -0.66026175
-0.56185037 -0.3072299 -0.9049908 -0.76612765 -0.035519443 0.123294964 -0.62187284 -0.66154045
-0.057159577 -0.47631454 -1.0035901 -0.73486596 -0.2006079 -0.5074096 -0.79619324 -0.36783117
-0.2552155 -0.23675747 -1.1062297 -0.37065443 -0.6127634 -0.47891563 -0.5679864 -0.49045575
-0.5081307 -0.8224539 -0.75476646 -0.5776174 0.08543399 0.08222554 -0.6178766 -0.07419265
-0.67994916 -0.75497055 -0.2937094 -0.5716251 0.08047958 -0.28552556 -0.009935509 -0.46117827
-0.08808181 -0.335218 -0.22437704 -0.87049127 -0.27058664 -0.4976096 -0.26317 -0.9460158
-1.2030863 -0.44032037 -0.7948709 -0.7506073 -0.34652156 -0.32962838 -0.13800335 -0.8246746
-0.5136916 -0.36541194 -0.19715868 -0.24446003 -0.08489179 -0.9927081 -0.67723554 -0.20377925
-0.40667403 -0.55772936 -0.42173097 -0.43573955 -0.94632995 -1.2302998 -0.8985132 -0.07742852
-0.24819839 -0.5854483 -0.66177803 -0.085036166 -0.14798811 -0.56323934 -0.30880097 -0.34860143
-0.11450104 -0.32140213 -0.21640873 -0.30564183 -0.35220107 -0.2033298 -0.4473478 -0.73361516
-0.32984567 0.07587402 -0.77610695 -0.7115439 -0.32540515 -0.14105725 -0.7264724 -0.4248723
-0.4041311 -0.21348003 -0.5258806 -0.4452592 -0.12905587 -0.44402647 -0.8289676 -0.19653289
-0.3642272 -0.7594847 -0.2936163 -0.6171956 -0.52571636 -0.30904305 -0.773503 -0.19942442
-0.57158583 -0.33366942 -0.43245474 -0.10037948 -0.28708205 -0.4852188 -0.2899082 -0.7145326
-0.25339094 -0.36050683 -0.067590594 0.20890416 -0.7022781 -0.47413936 -0.22337355 -0.47452193
-0.3928409 -0.4693162 -0.10379762 -0.59814435 -1.2030642 -0.34076983 -0.6239339 -0.33346152
-0.48895743 -0.4617113 -0.37647393 -0.51540816 -0.42787626 -0.53239405 -0.1692234 -0.33362553
-0.35137653 -0.39197215 -0.44794714 -0.28744602 -0.4655805 -0.28585678 -0.39638683 -0.8253876
-0.3744769 -0.34266126 -0.53207743 -0.011632432 -0.34656054 -0.7835567 -0.5176217 -0.83532315
-0.4019082 -0.68626165 -0.017932039 -0.30997467 -0.20286633 -0.2189811 -0.3363986 -0.57476693
-0.0828125 -0.1194084 -0.90386784 -0.38159817 -0.12016453 -0.48144704 -0.6317641 -1.027992
-0.027693566 -0.7489759 -0.9564698 -0.5282217 -0.25706688 -0.28739622 -0.51324236 -0.2607309
-0.31584647 -0.18385477 -1.0372156 -0.21067357 -0.78439826 -1.344178 -0.5471077 0.026211794
-0.6884409 -0.9891706 -0.72638255 -0.5297046 0.19862074 -0.08054625 -0.9804636 -0.28047648
-0.32820946 -0.5149253 -0.43678385 -0.29654512 0.315866 -0.39086577 -0.005536922 -0.46706134
0.23105162 -0.32144034 -0.10187351 -0.62491655 -0.35814732 -0.60070264 -0.4452906 -1.3793477
-0.17375058 -0.42395508 -0.50204396 -1.1248324 -0.44444263 -0.37606853 -0.03987124 -0.50093883
-0.9005508 -0.36015213 -0.17949449 -0.3537908 -0.14411414 -1.1670283 -0.23209527 -0.4474265
-0.5204059 -0.71142477 -0.26518857 0.0103200255 -1.3585705 -0.6793065 -0.8995804 -0.005295637
-0.33096856 0.11580065 -0.9157195 -0.029499276 -0.21146113 -0.44199896 -0.08339192 -0.30038857
00000000: 415b 02bf a2cc ffbe a0d3 8ebe 8cfb 94be
00000010: bbb3 1dbe 5858 76be 4c4d b2be ea06 29bf
00000020: 6dd5 0fbf 3d4d 9dbe 7aad 67bf f120 44bf
00000030: d67c 11bd 1282 fc3d 0f33 1fbf b75a 29bf
00000040: 2920 6abd 80df f3be a475 80bf 2d20 3cbf
00000050: 286c 4dbe 98e5 01bf 52d3 4bbf 5e54 bcbe
00000060: 9bab 82be 8d70 72be ef98 8dbf 6bc6 bdbe
00000070: 10de 1cbf 6e34 f5be 8f67 11bf 041d fbbe
00000080: db14 02bf 578c 52bf 6038 41bf bcde 13bf
00000090: 04f8 ae3d dd65 a83d 292d 1ebf 51f2 97bd
000000a0: 2611 2ebf c045 41bf 1461 96be 0656 12bf
000000b0: 7ad2 a43d 6830 92be 8cc8 22bc 8f1f ecbe
000000c0: 3c64 b4bd b2a1 abbe 18c3 65be 84d8 5ebf
000000d0: 558a 8abe afc6 febe 38be 86be 172e 72bf
000000e0: bbfe 99bf ac71 e1be a97c 4bbf cd27 40bf
000000f0: 466b b1be 0dc5 a8be c050 0dbe e01d 53bf
00000100: 4b81 03bf 4617 bbbe f7e3 49be bb53 7abe
00000110: bfdb adbd 1e22 7ebf 4f5f 2dbf 82ab 50be
00000120: 9437 d0be 5ac7 0ebf 1fed d7be 4119 dfbe
00000130: ae42 72bf 777a 9dbf f604 66bf d892 9ebd
00000140: b827 7ebe f1df 15bf 496a 29bf 7127 aebd
00000150: 328a 17be 7430 10bf 291b 9ebe e37b b2be
00000160: 857f eabd d28e a4be 409a 5dbe 167d 9cbe
00000170: b353 b4be b035 50be c50a e5be 34ce 3bbf
00000180: 88e1 a8be d763 9b3d f2ae 46bf be27 36bf
00000190: 819b a6be 5071 10be 18fa 39bf dd88 d9be
000001a0: 46ea cebe 829a 5abe 1ca0 06bf 04f9 e3be
000001b0: 3927 04be 7057 e3be 3837 54bf eb3f 49be
000001c0: fd7b babe 976d 42bf e054 96be 8800 1ebf
000001d0: 5995 06bf e43a 9ebe 4b04 46bf ea35 4cbe
000001e0: 7353 12bf b8d6 aabe b56a ddbe c293 cdbd
000001f0: 6bfc 92be 996e f8be d96e 94be 9ceb 36bf
00000200: 75bc 81be 5a94 b8be f06c 8abd f9ea 553e
00000210: 7fc8 33bf 65c2 f2be 09bc 64be 8af4 f2be
00000220: 7122 c9be 374a f0be d993 d4bd fd1f 19bf
00000230: 02fe 99bf 6279 aebe 22ba 1fbf 78bb aabe
00000240: a158 fabe 6c65 ecbe 31c1 c0be caf1 03bf
00000250: 9912 dbbe fa4a 08bf e648 2dbe f7d0 aabe
00000260: a0e7 b3be 93b0 c8be 5459 e5be 202c 93be
00000270: 9160 eebe d25b 92be 37f3 cabe 9a4c 53bf
00000280: 70bb bfbe 4c71 afbe 3a36 08bf f595 3ebc
00000290: 6270 b1be 2c97 48bf db82 04bf bdd7 55bf
000002a0: e9c6 cdbe d8ae 2fbf 36e6 92bc 00b5 9ebe
000002b0: 31bc 4fbe 953c 60be 703c acbe ed23 13bf
000002c0: 9a99 a9bd 648c f4bd e263 67bf d660 c3be
000002d0: d218 f6bd 3a80 f6be 4bbb 21bf 3e95 83bf
000002e0: 9edd e2bc e2bc 3fbf 34db 74bf 8a39 07bf
000002f0: 459e 83be 9925 93be da63 03bf 857e 85be
00000300: a1b6 a1be 6d44 3cbe 7bc3 84bf d0ba 57be
00000310: 53ce 48bf 060e acbf 400f 0cbf 1eba d63c
00000320: aa3d 30bf 493a 7dbf 35f4 39bf b89a 07bf
00000330: 3c63 4b3e 6ff5 a4bd aaff 7abf 9d9a 8fbe
00000340: 120b a8be 25d2 03bf 22a2 dfbe c3d4 97be
00000350: 30b9 a13e 8f1f c8be 116f b5bb aa22 efbe
00000360: cc98 6c3e d493 a4be 0fa3 d0bd 88fa 1fbf
00000370: 165f b7be a6c7 19bf 21fd e3be 778e b0bf
00000380: aceb 31be a410 d9be f485 00bf 82fa 8fbf
00000390: fc8d e3be 0e8c c0be 0650 23bd 873d 00bf
000003a0: 7f8a 66bf dc65 b8be 67cd 37be 1124 b5be
000003b0: a892 13be 2f61 95bf 62aa 6dbe 1615 e5be
000003c0: 5239 05bf ef1f 36bf ccc6 87be 5315 293c
000003d0: a3e5 adbf 08e7 2dbf e74a 66bf 0687 adbb
000003e0: b674 a9be e428 ed3d 986c 6abf 77a8 f1bc
000003f0: 4489 58be b04d e2be 62c9 aabd 88cc 99be

fc3.bias f4 [10]
0.26677242 0.4109981 -0.1372452 -0.092316516 -0.40282515 -0.35019037 -0.14857705 -0.45754743
0.32373503 0.6457562
00000000: 6596 883e 586e d23e 018a 0cbe 7110 bdbd
00000010: 193f cebe 274c b3be 9524 18be a843 eabe
00000020: 99c0 a53e 4750 253f
